==========================================================================================
Layer (type:depth-idx)                   Output Shape              Param #
==========================================================================================
TabCNN                                   [512, 6, 21]              --
├─Sequential: 1-1                        [512, 32, 190, 7]         --
│    └─Conv2d: 2-1                       [512, 32, 190, 7]         320
│    └─ReLU: 2-2                         [512, 32, 190, 7]         --
├─Sequential: 1-2                        [512, 64, 188, 5]         --
│    └─Conv2d: 2-3                       [512, 64, 188, 5]         18,496
│    └─ReLU: 2-4                         [512, 64, 188, 5]         --
├─Sequential: 1-3                        [512, 64, 186, 3]         --
│    └─Conv2d: 2-5                       [512, 64, 186, 3]         36,928
│    └─ReLU: 2-6                         [512, 64, 186, 3]         --
├─MaxPool2d: 1-4                         [512, 64, 93, 1]          --
├─Dropout: 1-5                           [512, 64, 93, 1]          --
├─Flatten: 1-6                           [512, 5952]               --
├─Linear: 1-7                            [512, 128]                761,984
├─ReLU: 1-8                              [512, 128]                --
├─Dropout: 1-9                           [512, 128]                --
├─Linear: 1-10                           [512, 126]                16,254
==========================================================================================
Total params: 833,982
Trainable params: 833,982
Non-trainable params: 0
Total mult-adds (G): 20.07
==========================================================================================
Input size (MB): 3.54
Forward/backward pass size (MB): 568.06
Params size (MB): 3.34
Estimated Total Size (MB): 574.93
…
